checkpoint_latest.pth (torch, 284115 bytes, 7 tensors)

ltc.cell.W_hh f4 [256, 256]
00000000: c51e 793d 3816 233d 3d3c 933c 1480 aa3b
00000010: c927 2c3d 7559 303d 9895 8dbd 78fc 783d
00000020: 7a61 24bd bc05 043d c03d a93c 314e 953c
00000030: 6889 603d 6870 e53c 8bff 22bd a7af 27bc
00000040: e0c4 7d3b b588 10bd c81c e3bd 9cf4 31bc
00000050: 97fe da3c d97d 883d e3f1 72bd bca0 7b3b
00000060: 99be 29bd 80c3 cdbd 66bc c63d f5c0 ebbd
00000070: ccc6 be3c 0fef 7dbc f364 74bc 897e 69bd
00000080: 6b5f 1e3d 7e37 b3bd 0f78 2b3d ff8f d4bd
00000090: 534a 12bd 455f 6e3d 3514 e53a 024a adbc
000000a0: ef95 96bd 88c6 5c3b ed8d 87bc 7779 84bd
000000b0: d204 26bd 7621 253c 8141 423c f12b 213d
000000c0: 6ac8 be3d 883e 393d 5fee d23d e239 d83c
000000d0: dfa2 d33d 3291 9fbc fe25 083e d716 83bd
000000e0: 8add 56bd 8b32 343c b7c2 f1bd 9453 703d
000000f0: d566 f6bc f2d7 3dbd ed3b 0cbd e112 003d
00000100: d6ed 003e e766 a73d d866 883d 4a38 18be
00000110: fa53 283d 91a1 adbb 3478 6cbc f1e8 96bc
00000120: 4ff8 63bc d9f5 ed3a d821 d43c e6d2 063d
00000130: ff15 b03d 9f8c 9ebd 3aa6 2f3d ecb3 82bd
00000140: 5075 7abc df9b 8b3d f531 29bd ef83 85bb
00000150: d1af 5a3d 07ec ffbb 0c59 a8bc f34b 9e3d
00000160: c529 21bd 6bc2 94bc 342e d63c 0246 0e3d
00000170: 01cd 2e3c 0f30 fb39 bd3a 59bd c821 f7bc
00000180: d48a d03d 7f6b 2c3d ec6f b53d 73bb 31bd
00000190: 222f 323d db7a b23c 2d4a c4bc f623 2d3d
000001a0: 9484 d6bc 9704 3fbd 3aad d23c aef8 333d
000001b0: 12bd b7bb be3a 8dbc 2afe e3bd 7882 133c
000001c0: 8e93 3fbb f57a 59bd df08 853d 507d d33d
000001d0: 8f73 0f3b 04a0 8a3d ecb8 693d 2ede b03c
000001e0: 571a 873d e7dd 2cbd 8515 96bd 15c1 9a3d
000001f0: b664 b4bc 0325 1bbd 4ec9 113e 44ac 44bc
00000200: 2ba8 45bd 0fc3 c6bc 71bb c1bd 1b66 b4bc
00000210: 85ff 363d 21fa 02bd eaa4 c53d b96e c53b
00000220: 9364 f93d 1030 f8bc 98f1 cfbc a458 c03a
00000230: 4a9c 8f3d 1d03 07bd dfd1 32bd f0ab 8dbc
00000240: 2fff 673c d9c8 e4bd a58d d4bd bb46 e7bc
00000250: ea91 983d 5983 bc3d d18e eebc 1cf3 953d
00000260: 6662 54bd 7d79 7bbd 3ff5 2cbd 3d40 71bd
00000270: dba3 60bd a0bc e63d a05e 95bd 4fcd b5bc
00000280: e9a5 15bd a9ad 6dba 7c4f 7c3c faea a2bb
00000290: c673 993c d7fd 483d dfc8 6bbc 49d1 833c
000002a0: 8f6e 82bd b796 953b 0188 5ebd 1392 a2bc
000002b0: e01e c43c 1604 823c 7eb5 623d b6e4 4bbd
000002c0: 82d9 6c3b 4241 39bc 7a2b 5ebd 01ad 413d
000002d0: 3e4f e2bc fe59 db3c 4fd8 c4bb cddf e43c
000002e0: b99f c5bc 9c9b 03bc 82ca 083e 7644 013b
000002f0: 377c 9c3c e942 823d 93eb ef3b d8dd 1b3d
00000300: f362 8e3c 4944 24bd 7d2c 2ebc 0002 db3c
00000310: 89ae fcbc c017 19b9 6499 6ebd d9eb 56bc
00000320: 96f2 843d de00 6c3d 3a59 95bd a00f 9ebd
00000330: 014c 883c e8b4 b0bd c4c0 afbb 5133 55be
00000340: a171 9f3c b451 20bd 3389 193c 44fd 09bd
00000350: e494 dd3a a89c 893c 66e6 853d 4914 953b
00000360: 89ec 04bd 7515 c8ba 2798 7bbd f3b1 5a3d
00000370: c680 71bc 8b5e 47bd 1b2c 5dbd 7505 92bd
00000380: 0df0 b3bd b2ea 8c3b 71cf 043e 6c9c 903d
00000390: 4bde fabd f209 26be 3bb3 903d aa96 1a3d
000003a0: 4ed1 bebd c976 c23d 54bc da3c 6f34 aa3b
000003b0: 7adc ae3d 6c53 05bd e9ec bcbd 01ac 63bb
000003c0: d56e ae3d 08d1 4c3d e190 7d3d 3b1f 5ebd
000003d0: 6a25 2c3d 4434 08ba cc96 07bd 89f5 25bd
000003e0: ce62 8c3d 99e8 f4bd 5a95 c23d dd43 d83b
000003f0: 531d febc de71 e33d bf2a c0ba 2193 573c
0.06082036 0.03981611 0.01797306 0.0052032564 0.04203013 0.043054063 -0.06913298 0.060787648
-0.040132023 0.03223203 0.020659328 0.018225761 0.05481854 0.028007701 -0.039794486 -0.01023475
0.0038722083 -0.035286624 -0.11089474 -0.010861542 0.026732726 0.066646285 -0.059312712 0.0038395366
-0.041441534 -0.10047054 0.09703903 -0.11511413 0.023288153 -0.015498891 -0.014916646 -0.05700544
0.038665216 -0.08750819 0.041862544 -0.103790276 -0.035715412 0.058196325 0.0017477336 -0.021153454
-0.07352816 0.003368767 -0.016547168 -0.0646848 -0.04053194 0.0100787785 0.011856438 0.039348546
0.0931557 0.04522565 0.10299372 0.026394788 0.103337996 -0.019478414 0.13295743 -0.06400841
-0.05245737 0.0109983785 -0.11804717 0.058673456 -0.030078331 -0.04634852 -0.034236837 0.031268004
0.12590727 0.08173924 0.06660241 -0.14865223 0.04109571 -0.005298801 -0.0144329555 -0.018421622
-0.013914182 0.0018154933 0.025895044 0.032915972 0.085979454 -0.07741665 0.042883135 -0.063819736
-0.015286759 0.068168394 -0.04130741 -0.0040745656 0.053390328 -0.007810119 -0.020550273 0.0772933
-0.039346475 -0.018159112 0.026145078 0.034734733 0.010668994 0.00047910257 -0.053034533 -0.030167475
0.10182729 0.042094704 0.08859238 -0.043391656 0.04350198 0.021787098 -0.023961151 0.042270623
-0.026186265 -0.046635237 0.025717366 0.04393833 -0.0056072557 -0.017239925 -0.11132462 0.009003274
-0.0029232237 -0.053095777 0.06495833 0.10326636 0.0021888947 0.06768802 0.05706112 0.021590319
0.06596821 -0.04220381 -0.07328323 0.07556359 -0.022020679 -0.037877094 0.14236948 -0.012003962
-0.04825608 -0.024262933 -0.0945958 -0.022021344 0.044677276 -0.031976823 0.096505955 0.006025162
0.12177386 -0.030296355 -0.025383756 0.0014674854 0.07012232 -0.032961953 -0.04365718 -0.0172939
0.014159962 -0.11171121 -0.10378579 -0.02823197 0.07449706 0.0920474 -0.029120835 0.0732176
-0.051851653 -0.061395157 -0.042226072 -0.058899153 -0.054843765 0.11266446 -0.07293439 -0.022192625
-0.036535177 -0.000906671 0.01539981 -0.004971859 0.018731963 0.049070206 -0.014391153 0.016091006
-0.06368744 0.0045650858 -0.054328922 -0.019845044 0.023940504 0.015871089 0.055348866 -0.049778663
0.0036140387 -0.011307063 -0.05424068 0.04728413 -0.027625676 0.02677631 -0.0060072313 0.027938748
-0.024124013 -0.008032706 0.133585 0.0019724644 0.019102199 0.06360418 0.007321784 0.038053364
0.017381167 -0.040104184 -0.010630724 0.026734352 -0.030844944 -0.00014600065 -0.058251753 -0.013117754
0.06491582 0.057618015 -0.07292409 -0.07717824 0.016637804 -0.08628255 -0.0053635556 -0.20820357
0.019463362 -0.03914042 0.00937109 -0.0336888 0.0016905335 0.016798332 0.06538086 0.0045495373
-0.03245214 -0.0015265184 -0.0614244 0.05339236 -0.014740175 -0.048674148 -0.05399714 -0.07129947
-0.087860204 0.004300439 0.12969758 0.07061085 -0.1224943 -0.16214731 0.070654355 0.03774134
-0.093172655 0.09495313 0.02670113 0.005194239 0.08538146 -0.03255026 -0.092248745 -0.0034739973
0.08517233 0.050004035 0.061905745 -0.054229002 0.04202787 -0.00051957765 -0.033102795 -0.040517364
0.06854783 -0.11958427 0.09501143 0.006599887 -0.031019842 0.11105703 -0.0014661177 0.013157637

ltc.cell.W_xh f4 [256, 9]
00000000: d9b9 e5bd aaee 8c3e 308a a3be 9546 a1be
00000010: 5f49 1ebd f5f1 823d ae1c 813d 7fd9 38bd
00000020: d4e4 46be b253 e1bd 1970 37be 9b7d a3be
00000030: 5d66 3b3e d096 923e 56c2 da3b 367c b2be
00000040: 07e2 bdbb e92f c6be 0b37 94be 72e1 7fbe
00000050: 7bb0 8dbc 4719 163c a9db 06bd a1d7 083e
00000060: 2477 453c f38e e4be 3a07 c6bd 6d3e af3d
00000070: a77c 633c b640 dbbb 8039 1abe 0f28 a5bc
00000080: 66df de3d 6a83 603e 7d55 7dbe 67fa 20be
00000090: c76b a5be 3217 683e c974 f7bb feb2 18bd
000000a0: dcb4 18be b42a 893e 640d c9be efe7 24be
000000b0: b781 bc3d 86d7 e1be 5963 993e b7f1 6a3d
000000c0: 6319 b13d fb28 4c3e 905b 17be cb84 91be
000000d0: 8f68 953d f433 283e cc0f 4fbe eb3b 39bd
000000e0: 4d7b 7abe 04e7 143d 6d11 4a3d 1f89 f1bd
000000f0: 4eb2 1dbe dd1d 17bd 6fa6 853a bbdc e83e
00000100: 91c7 a83e d00a 7cbe 8791 f53e c747 933e
00000110: 4fba 3a3d 2caa b93e 7b30 4dbe 29ec 773d
00000120: 2800 103e 73ae 5ebc 1fb0 8e3d 6789 823c
00000130: 7b80 ddbc fe4a e93c de4b 8dbe 4dcd e03e
00000140: 5024 05be 8227 913d 8e52 f1bc e3aa 19be
00000150: b229 133f f34d 023e 19f3 d2bd 546e 013e
00000160: 92a6 743d 5759 28be 6363 563d 119e d43d
00000170: f866 bc3c f1fd 4dbd 63cc a7bc 9b3b 1e3c
00000180: d2be 05be 6b14 213e fac4 003d 4ed7 dd3e
00000190: 3cd9 2f3d 6af1 89be 4733 893e 7f7e 67be
000001a0: 899f 753e abd4 9d3c 7e96 72be 7061 40be
000001b0: ec11 673d a56e 1ebc 2b69 083d 1296 143c
000001c0: 1758 4abd e145 73bd bff4 86be c48f d63e
000001d0: e6b3 44bd 033f d4be 156e 893e c96b 013d
000001e0: aece 293d 3710 f3bc d1f1 ecbc f032 3ebe
000001f0: 27cf 2c3e b237 adbd c0fa 773e 063c 58be
00000200: 52ef 5cbb 6f22 bcbd d5b8 b33b d868 1bbd
00000210: e196 3abe 9171 813e b6eb 02bd e220 f33e
00000220: ac0f 72be 65b3 12be 153c b03e a091 6b3d
00000230: 10af 85be 024b 7f3d b135 c53e 2984 733e
00000240: dedd 5fbe d643 b53e 05b3 d53e 14bd 333e
00000250: 0bcb 8ebe 6174 383d 4fd2 7ebd 3e70 08be
00000260: de7b 98be 1932 2d3e 4e19 003e 2a1d 253e
00000270: 1d40 623d 67d2 9d3d ff66 1f3e bacf 84be
00000280: 68b5 2c3e a2f5 9a3d e189 183e 5c69 07bf
00000290: e544 ee3e b0d1 e5be 7852 ad3e 62f7 97be
000002a0: 5763 1b3e 8fae 8fbd b828 b93d 5586 7b3e
000002b0: d38c 97bd 3bb5 5b3e ec18 5a3d 4de1 cd3d
000002c0: a3b0 82be fa12 9a3e b85c c13e 525b 81be
000002d0: 2023 82be ff46 92be 83f3 e83e 3b46 973e
000002e0: 9ae2 5dbd 63de 753c 31a6 2bbe 2b72 5abe
000002f0: d7aa 673e a77e ae3d f7ac 6bbe 7cbf 0b3f
00000300: 0141 df3e 3d3c 7f3d dfee adbd 174b b03e
00000310: 073e c6be bedf 2b3e 6c23 03bf 18b5 0e3e
00000320: 27cd 35be a4bb 823e 5cbd eb3e d141 cf3e
00000330: 6f02 a83e f490 84be 146c 053e 6dce 1abe
00000340: e7f5 a33e 30d1 f63d f17f 803b fb14 b4ba
00000350: ba34 8b3b 1f76 fcbd 900b 30be f9ec 5bbe
00000360: c00d babe 3ee7 d33e e9a1 bbbe f09b f73d
00000370: 88d4 a43e d8af dbbd 6c7e 0c3e ffa0 22be
00000380: f51a d23d 03fa 063f 1507 49be c516 afbe
00000390: 541d 323e d5f9 93be 3bde babe 46e9 e73e
000003a0: aefd 833e ceb4 36bc 63e2 b53e 1d81 dbbd
000003b0: 030d abbe 651a 213f 0590 d9bc 4335 acbe
000003c0: fb9d 973e ec31 e6bc 242e 67bc a1ab 9ebe
000003d0: 69a9 7a3e 9b18 cc3c 1039 09bd 6566 22be
000003e0: ae53 203e ded5 5e3e c791 803c 0355 08be
000003f0: d9f4 a0be 9777 0f3e 2ee8 17be 1c43 71be
-0.11217088 0.27525836 -0.31941366 -0.31499162 -0.03864419 0.06393806 0.06304298 -0.045129295
-0.19423229 -0.11002292 -0.17913856 -0.31931767 0.18300767 0.28630686 0.0066759987 -0.3486039
-0.005794767 -0.38708428 -0.28948244 -0.24988344 -0.017296067 0.0091613 -0.032924328 0.13363506
0.012052331 -0.44640312 -0.09669347 0.08556829 0.0138847 -0.0066910638 -0.15060997 -0.020160703
0.108824536 0.2192513 -0.24739642 -0.15720521 -0.3230879 0.22665098 -0.0075517637 -0.037280075
-0.14912742 0.26790392 -0.3926803 -0.161041 0.09204429 -0.44109744 0.2995861 0.057359423
0.0864742 0.19937508 -0.14781022 -0.28421625 0.072953336 0.16426069 -0.2022087 -0.045223158
-0.24461098 0.036353126 0.049333025 -0.11793732 -0.15400049 -0.036893714 0.0010196696 0.45480904
0.32964757 -0.246135 0.4796259 0.287657 0.045587834 0.36262643 -0.20038025 0.060527954
0.1406256 -0.013591397 0.06967186 0.01593466 -0.027038803 0.028478142 -0.27596945 0.43906632
-0.13002133 0.07087614 -0.02945831 -0.15006594 0.57485497 0.12725048 -0.103002734 0.12639743
0.059729166 -0.1644033 0.052340876 0.10381711 0.022998318 -0.050291006 -0.020483201 0.009657766
-0.13061073 0.15730445 0.03143785 0.43328327 0.04293178 -0.26941997 0.26796934 -0.22606848
0.23986639 0.019266447 -0.2369022 -0.1878717 0.056413576 -0.009669934 0.03330342 0.009068983
-0.049400415 -0.059392814 -0.263586 0.4190656 -0.048023127 -0.41454324 0.26841798 0.031596933
0.04145687 -0.029670818 -0.0289239 -0.18574119 0.16875897 -0.08457889 0.24216747 -0.21116647
-0.0033711982 -0.09186255 0.00548468 -0.037941784 -0.18221618 0.25281957 -0.031963073 0.47486025
-0.23638791 -0.14326246 0.3442084 0.057511926 -0.26110125 0.062327392 0.38517526 0.23780884
-0.2186198 0.35403317 0.41738144 0.17552596 -0.27889284 0.045032863 -0.062212285 -0.13324067
-0.29782003 0.16913642 0.12509653 0.16124406 0.055236924 0.07706147 0.15566634 -0.25939733
0.16866076 0.07566382 0.14896347 -0.5289514 0.46536937 -0.4488654 0.3385198 -0.29680926
0.15174614 -0.07015716 0.090409696 0.24562962 -0.07399907 0.21455853 0.053246424 0.10052738
-0.25525388 0.30092603 0.3776605 -0.25264984 -0.25417423 -0.2856979 0.45498285 0.2954577
-0.054171182 0.015006634 -0.16762616 -0.21332614 0.22623764 0.08520251 -0.230152 0.54589057
0.43604282 0.062313307 -0.08492827 0.3443229 -0.38719198 0.1678457 -0.51225924 0.1393627
-0.1775404 0.25533783 0.46042907 0.404799 0.32814357 -0.2589184 0.1302951 -0.15117808
0.32023546 0.12051618 0.003921502 -0.0013739163 0.004248229 -0.12327217 -0.1719191 -0.21477117
-0.36338615 0.4138736 -0.36646965 0.120902896 0.32193398 -0.10726899 0.13720101 -0.15881728
0.10259048 0.5272524 -0.19631608 -0.3419706 0.17394 -0.28901544 -0.36497673 0.4529516
0.2577948 -0.011151506 0.35524282 -0.10717986 -0.33408365 0.629309 -0.026557932 -0.33634385
0.29612717 -0.028099976 -0.014110122 -0.30990317 0.24478687 0.024914077 -0.033501685 -0.15859373
0.15656921 0.21761271 0.015694512 -0.1331368 -0.31436804 0.14010464 -0.14834663 -0.23560756

ltc.cell.bias f4 [256]
00000000: d288 36bf a002 2abf fdd6 19bf 9344 fdbe
00000010: 61f2 4abf a8c7 22bf 4b27 51bf f3f7 35bf
00000020: 668a 52bf 1af8 f0be cee1 2bbf 3d29 38bf
00000030: dfcb 47bf 7519 72bf 0ce5 31bf 93ef 53bf
00000040: d8f3 41bf 8efa 55bf 6727 1ebf fa0c 19bf
00000050: 77c6 24bf 7c8e 64bf 21f9 5cbf eb1f 32bf
00000060: dabb 0ebf 358e 5abf e870 33bf 6b84 16bf
00000070: 15e2 06bf c9c1 2dbf b8bd 12bf 0ed7 49bf
00000080: d327 71bf 3502 19bf 0af6 65bf 63a5 23bf
00000090: dc54 66bf e7c6 59bf 626c 28bf 5ab9 18bf
000000a0: 37e4 2bbf 7cac 1ebf d1e3 4ebf 3655 66bf
000000b0: f21f 02bf 26c1 45bf 9a03 3cbf 0be1 28bf
000000c0: db48 21bf 5fe0 44bf 3283 3bbf 57a5 02bf
000000d0: 18c3 2bbf e1b5 21bf 8e28 74bf 6d1d 0cbf
000000e0: 874f 45bf 870e 06bf 5280 4dbf 7333 42bf
000000f0: 86c9 0ebf e60a 3cbf 4c8d 43bf 14d7 3dbf
00000100: ce12 57bf 2bcb 15bf 177b 39bf ef32 14bf
00000110: 8e32 53bf 67cb 43bf 2fa0 03bf 5add 18bf
00000120: 9ab7 2abf d3aa 23bf 7bc7 09bf 1062 28bf
00000130: b2c3 20bf 38bd f9be e57d e6be 99f9 45bf
00000140: ca12 5ebf b8a0 40bf 8f69 42bf 1f85 47bf
00000150: 509a 6dbf 4e5b 61bf c1dd 02bf 0d93 5dbf
00000160: 31f6 14bf 8c49 29bf 4305 08bf ee67 d3be
00000170: cf14 3cbf 3533 52bf d18f 50bf a97e 34bf
00000180: 8664 5dbf da38 1dbf 8679 74bf caf1 5fbf
00000190: a4e5 2ebf 2df6 11bf 8832 11bf 6df9 01bf
000001a0: b438 15bf 2dab 13bf 3b50 14bf 87b6 58bf
000001b0: 12f2 2abf ddba 36bf 52c9 83bf a8e9 2bbf
000001c0: 4693 3bbf 13dc 2ebf c731 51bf d7f2 42bf
000001d0: 36bd 0dbf fa82 5bbf 4a18 1bbf 09b8 21bf
000001e0: 6f0e 44bf e52a 33bf 7534 46bf 7c8f 33bf
000001f0: bc10 3bbf 4d81 28bf ca8c 1dbf b730 fcbe
00000200: 817a 6dbf 22bb 45bf 13c5 4abf f4b3 65bf
00000210: e754 31bf 6282 05bf db2e 15bf cc47 4fbf
00000220: 9c60 14bf f4b4 4ebf 454c 4cbf f11b e9be
00000230: 8202 4cbf 2ea7 3dbf 16e5 60bf 90eb 10bf
00000240: def5 3abf f5ef 27bf a4cd 39bf 8305 2fbf
00000250: 4fbf 30bf 1a16 32bf 48f0 63bf 85a3 53bf
00000260: 71c9 47bf e709 08bf c9e8 2cbf 6e04 e8be
00000270: 1631 41bf 4b27 18bf d08d 3fbf 1e03 40bf
00000280: 60c2 58bf bf3b 18bf a254 49bf 6494 f9be
00000290: 9272 2dbf 6c7a 22bf 7ea9 1fbf 359e 24bf
000002a0: 61a4 4cbf 83db 46bf f41d 52bf ed79 55bf
000002b0: 3411 14bf 0963 23bf d8ca 4bbf abb5 44bf
000002c0: a89f e4be 5b26 23bf f336 06bf d5c7 2dbf
000002d0: 0ee9 38bf ef45 4ebf e700 08bf d00e 2cbf
000002e0: 86e7 63bf 8a3a 42bf 85af 64bf 6ccb 32bf
000002f0: e26f 29bf fd89 29bf d662 3cbf b9de 3abf
00000300: d7e9 1cbf c657 31bf ba24 3ebf 66ad 04bf
00000310: d825 3ebf 05ad 07bf 292c 2bbf f3e3 3dbf
00000320: dc41 3dbf 3b4d 81bf 7c0f 41bf 5dc7 2ebf
00000330: 010a 2dbf 2054 16bf 53b0 51bf ec62 21bf
00000340: aa36 61bf 9349 5cbf a8ea 3dbf 0dd1 2ebf
00000350: e8b2 f5be 645b 1ebf 4674 20bf b3cd 42bf
00000360: 969c ccbe 2bf7 60bf 9a3b 3cbf 11d9 34bf
00000370: 6dbf 05bf 5763 25bf 11ef e9be f89c 03bf
00000380: e0fb 36bf 1510 57bf ef12 4cbf b76a 51bf
00000390: ef7b 4abf 9715 3cbf 84f8 4bbf df44 06bf
000003a0: 8beb 25bf 27a9 20bf 2319 1ebf 64f8 dabe
000003b0: 6009 0bbf 7bca 40bf 80d2 26bf 4079 0abf
000003c0: c77e 5dbf ef86 25bf 655a 46bf f0c7 2ebf
000003d0: a5c7 fdbe 5317 e4be c62e 3cbf 1b01 1bbf
000003e0: 4b3e 4fbf aed7 5cbf ec40 2abf 5644 0cbf
000003f0: c450 f9be 9035 08bf fad3 eebe 0528 1dbf
-0.7130252 -0.66410255 -0.6009367 -0.4946638 -0.7927609 -0.635859 -0.8170058 -0.71081465
-0.8224243 -0.47064286 -0.67141426 -0.71937925 -0.7804546 -0.94570094 -0.6949012 -0.82787436
-0.757627 -0.8358544 -0.61778873 -0.59785426 -0.64365333 -0.89279914 -0.8631764 -0.6957995
-0.5575539 -0.8537324 -0.70094156 -0.58795804 -0.52688724 -0.6787382 -0.5732074 -0.7884377
-0.9420139 -0.5976899 -0.8982855 -0.63924235 -0.89973235 -0.85069126 -0.6579038 -0.59657824
-0.67145103 -0.6198194 -0.8081637 -0.8997377 -0.50829995 -0.77247846 -0.73442996 -0.6596839
-0.63001794 -0.76904863 -0.73247063 -0.5103354 -0.67094564 -0.6316815 -0.9537438 -0.547324
-0.77074474 -0.52365917 -0.80273926 -0.75859755 -0.5577625 -0.7345413 -0.76387477 -0.7415631
-0.8401307 -0.58513135 -0.72453445 -0.5789022 -0.82499015 -0.7648224 -0.51416296 -0.59712756
-0.66686404 -0.6393253 -0.5382001 -0.6577463 -0.6279861 -0.48777175 -0.45017925 -0.7733398
-0.8674742 -0.7524524 -0.7594232 -0.779375 -0.9281359 -0.88029945 -0.5111962 -0.86552507
-0.5818816 -0.6612785 -0.5313303 -0.4129023 -0.7346925 -0.82109386 -0.81469446 -0.7050577
-0.8648151 -0.61414874 -0.9549793 -0.87478316 -0.68319154 -0.5701626 -0.5671773 -0.5077122
-0.5828965 -0.5768307 -0.5793492 -0.84653515 -0.6677562 -0.7137888 -1.0295813 -0.67153406
-0.73271596 -0.68304557 -0.8171658 -0.76151794 -0.5536684 -0.8574673 -0.6058394 -0.6317144
-0.76584524 -0.69987327 -0.77423793 -0.70140815 -0.7307241 -0.658223 -0.6154295 -0.49255916
-0.9276505 -0.77238667 -0.7920696 -0.8972771 -0.69270176 -0.52152073 -0.5827462 -0.8096893
-0.57959914 -0.8074486 -0.7980388 -0.4552913 -0.79691327 -0.7408322 -0.8784956 -0.5660944
-0.73031414 -0.6560052 -0.7257941 -0.68367785 -0.69041914 -0.69564974 -0.89038515 -0.82671386
-0.7804175 -0.5314011 -0.675427 -0.4531588 -0.75465524 -0.59434956 -0.74825764 -0.75004756
-0.8467159 -0.59466165 -0.78644764 -0.48746026 -0.67752945 -0.6346805 -0.62368 -0.64303905
-0.7993832 -0.776787 -0.82076955 -0.8338917 -0.5783875 -0.6382299 -0.7960639 -0.76839703
-0.44653058 -0.637304 -0.52427596 -0.67883044 -0.72230613 -0.8057546 -0.53126377 -0.672101
-0.8902515 -0.75870574 -0.8933032 -0.6984165 -0.66186345 -0.6622618 -0.7358831 -0.729961
-0.6129431 -0.69274557 -0.7427479 -0.51827085 -0.74276495 -0.5299838 -0.6686426 -0.7417595
-0.7392862 -1.0101694 -0.7541425 -0.68272954 -0.6759339 -0.58722115 -0.81909674 -0.6304157
-0.87974036 -0.86049765 -0.7418618 -0.68287736 -0.47988057 -0.618582 -0.6267742 -0.7609512
-0.39963216 -0.8787715 -0.73528445 -0.7064372 -0.5224522 -0.64604706 -0.45690206 -0.5141139
-0.7147808 -0.84008914 -0.7971639 -0.8180346 -0.7909536 -0.73470443 -0.7967608 -0.5244884
-0.64812535 -0.62758106 -0.61757106 -0.42767632 -0.5431118 -0.7530896 -0.6516495 -0.5409126
-0.8652157 -0.6465902 -0.7748168 -0.6827383 -0.4956638 -0.44549045 -0.7350887 -0.6054856
-0.80954427 -0.862666 -0.6650531 -0.5479177 -0.48694432 -0.5320673 -0.466461 -0.6138919

ltc.cell.log_tau f4 [256]
00000000: 3b2a 9d3d 96d1 d53e ddd3 7d3d a9dd 133e
00000010: 0051 0e3d 2105 b63e 8dd3 b53d 9d22 653e
00000020: eb8a 2c3e 6a65 443e 3ff1 a03d ba8b 543e
00000030: 6c3a 913e 4cd0 153e 46f7 aa3d caa7 af3e
00000040: 3fbd 993e 29ca 653d fb88 f33d 094c 403e
00000050: 2364 853d dedf f83d b843 973e 3d43 063e
00000060: 5380 1abd 67f9 8d3e eec2 c03e 069c 693d
00000070: dc93 133e 51ce 673e 0757 803e d040 4c3e
00000080: 59c9 753e eb6c e73d 43c9 243e 9665 8f3e
00000090: af20 0c3e 6ccb 633e 7bb5 743e cc51 c33d
000000a0: 9ab5 6e3d fc8f 643e baf7 b43d a21f 693e
000000b0: e061 4f3e 5c1f 813e c339 073c 1928 4f3e
000000c0: 21ce ad3e fb13 ef3d 42d7 763e dfba 133e
000000d0: 83e9 8c3e 9e6b bd3c 0062 c93e 0eea ad3d
000000e0: 7785 563e 2b4c 883e 2268 823e 22cb 083e
000000f0: 3fcb 2c3e ac71 833d 5231 373d 1730 4c3d
00000100: f505 233e 0ed6 123e f5ac 4b3e 4f39 943e
00000110: b95f 8c3e 5a90 b83c 8296 fa3d b47e 693e
00000120: b75a 863e 09f7 8d3c 264e 503d f14d 293e
00000130: b9af 493e a6c8 0e3e d7ed f83d 3b96 723e
00000140: 0c06 483e 84ae 583e 6695 803e 4d10 4e3e
00000150: a682 d23d f53b 723e e1bb 3f3e c5b0 983d
00000160: 8f65 513e a0f3 b23e 0a6e 8ebc f177 d53d
00000170: df6f 4e3e 05af 7d3e baae b23d 7747 dd3d
00000180: e7ee e83e 9946 073e 7be2 5f3e 2dae 8a3e
00000190: b521 883e 11d6 3b3d 4328 263e bc4c 493e
000001a0: 6f94 923e c380 4e3e 59c7 2a3d 5ca8 d43c
000001b0: 9151 953e 527b 823e 9f0a ab3e 3056 393e
000001c0: 66d9 823d 9837 a63e 7cc4 913d 40a0 363e
000001d0: a57d b33e 7008 f43d 9022 513e 580a f53d
000001e0: 9201 a13d f44d 183e 9982 613e 078a 153e
000001f0: 6714 02be 9d1d 8b3d af9b f73e e213 953e
00000200: 8ba6 b23e 79bf 213e e3c2 913d 3ab7 133e
00000210: 16ca b93d de08 663d a345 973e 0330 e63d
00000220: a6f9 153e a609 0a3e e8ea 0d3e 104f 1f3e
00000230: 88f4 4f3e 9f7c 0b3e 50dd 013e e15f 103e
00000240: 200c 90bd 25f9 f33d 8df0 973e 2ce5 b03e
00000250: 2025 d03e 0eb2 8b3e c582 0d3e 46cc 323e
00000260: fa12 1b3e d238 9e3d 9869 9b3d aec1 513e
00000270: 29d2 723e d233 843e 44be 4d3e a544 aebc
00000280: 6c24 9b3e 1d49 663e 5d7d 0c3e f4a6 0e3c
00000290: 9fd2 5b3e 2a52 293e ddbe 813d c7a1 fa3d
000002a0: 80b8 643e 1fea 063e 7fec 443e 688e b0bc
000002b0: 8aa9 4b3e 2108 97bd 339e 193e 5914 973e
000002c0: e6bb 633e a049 443e c958 b73d 0d5b b23e
000002d0: 631a 0d3e da4d 8d3e 2c8a 0d3e 2638 033d
000002e0: 5ee5 893d 2613 913d 5a64 203e 4354 463e
000002f0: 8bed a13d 3fbf 563e 5966 cd3d dbab 8d3d
00000300: 55e5 b9bd b499 e83d c03c 203e d3fa 353e
00000310: e57e f73d 34b2 6e3e 2ebb 553e 80e6 423d
00000320: aa08 983e a069 2a3e ec03 983e 4bf4 593e
00000330: 1525 bf3d 6db7 513e 016f e93d ef10 653e
00000340: 8a07 683e 9f58 7a3e a955 2a3e dac6 fd3d
00000350: 718d 803e 4246 273e cc39 f63d 2ed2 623e
00000360: 77ee 623e 34fa fdbb 50ca 183e fc9b 973d
00000370: cb40 093e da5b 643c 9bee 4d3e e98e 623d
00000380: b7f0 653e 552d 863e 5de9 343e 54fb 4d3e
00000390: aad5 523e 5cdc 953e fd27 493e a09d 8e3e
000003a0: 93ae 473e ff7f 6e3e 53a3 b13e 00ae a83e
000003b0: 6c6b fd3d bc20 723e cde6 663e 9f9f ec3d
000003c0: ea4e 3f3e 00a8 963e 62b2 303e 0b04 003e
000003d0: 1f28 433e 425d a03a 680d bf3d 535c 553e
000003e0: 8549 673e f5a3 b93e 6425 7d3e dbd9 1e3d
000003f0: f29b ab3d 5f6e 6a3e 227d 07be 6a5d aa3d
0.076740704 0.41761464 0.061969627 0.14440025 0.034745216 0.35550788 0.08878241 0.22376485
0.16849868 0.19179311 0.07858514 0.20756426 0.28364885 0.1463024 0.08347945 0.343077
0.30027196 0.056100998 0.11891361 0.18779005 0.0651324 0.12152074 0.29543853 0.13111587
-0.037720036 0.2772934 0.3764872 0.05703356 0.14411873 0.22637297 0.25066397 0.19946599
0.2400259 0.11300071 0.160924 0.2800719 0.13684343 0.22245568 0.23897354 0.09537086
0.058278657 0.2232055 0.088363126 0.22765973 0.2025218 0.25219238 0.008253518 0.2023014
0.33946326 0.11673733 0.24105552 0.14426754 0.27521905 0.023122605 0.3933258 0.08491908
0.2094935 0.26620612 0.25470072 0.13358739 0.16874407 0.064181656 0.04472477 0.04985055
0.15920241 0.14339468 0.19890197 0.28949973 0.2741678 0.02252977 0.12235738 0.2280224
0.26241085 0.01732971 0.05085578 0.16533639 0.19695939 0.13943729 0.12154739 0.23690121
0.19533557 0.21160322 0.25113982 0.20123406 0.102788255 0.23655684 0.18724014 0.07455591
0.20448898 0.34951496 -0.017386455 0.10423268 0.20159863 0.24773796 0.08724733 0.108046465
0.45494768 0.13210525 0.21863739 0.2708601 0.26588216 0.045858447 0.16226296 0.19658178
0.2862887 0.20166306 0.04169402 0.025959186 0.29163793 0.2548471 0.3340654 0.18099284
0.06389122 0.3246429 0.071175545 0.17834568 0.35056797 0.11915672 0.20423341 0.119648635
0.07861628 0.14873487 0.22022475 0.14603435 -0.12703095 0.06792758 0.48360965 0.29116732
0.34892687 0.15795697 0.0711725 0.14425364 0.09071748 0.0561608 0.29545316 0.11239626
0.14646015 0.13480243 0.13859141 0.15557504 0.20308125 0.13621758 0.1268208 0.14099075
-0.07033563 0.11912755 0.29675713 0.34549844 0.40653324 0.27284282 0.13819416 0.17460737
0.15143958 0.07725681 0.075885 0.20484039 0.23712982 0.25820786 0.20092112 -0.021272967
0.30301225 0.22488828 0.13719697 0.008706797 0.21467064 0.1653525 0.063352324 0.12237888
0.22336006 0.13175248 0.19230841 -0.02155228 0.19888893 -0.07374597 0.15001754 0.29507712
0.22239646 0.1916871 0.08952481 0.3483509 0.13779597 0.2759846 0.1382224 0.03203597
0.067332014 0.070837304 0.15663281 0.19368081 0.07906636 0.20971392 0.10029287 0.069175445
-0.09076945 0.113574415 0.15648174 0.17771463 0.1208475 0.23310167 0.20872185 0.047583103
0.2969411 0.16641855 0.29690492 0.21284597 0.09333245 0.20480128 0.113981254 0.22369741
0.22659126 0.24447869 0.1663424 0.123914436 0.2510791 0.16335395 0.12022743 0.2215049
0.2216128 -0.007750774 0.14920926 0.074027985 0.13403623 0.013937915 0.20110552 0.05531207
0.22455107 0.2620646 0.17667146 0.20115405 0.20589319 0.29269683 0.1964416 0.27854633
0.19500189 0.23291014 0.3469492 0.3294525 0.12374005 0.236453 0.22548981 0.11553883
0.18682447 0.2942505 0.17255548 0.12501542 0.19058274 0.0012234824 0.09328729 0.20836
0.22586639 0.36257902 0.24721295 0.038781982 0.083793536 0.22893666 -0.13231328 0.083185986

ltc.cell.E_rev f4 [256]
00000000: 520b e93d 3ea1 123e 335c 213e 085d b8bd
00000010: 5d46 313e 3c43 4cbe 5e5c 5dbe d9ab 153e
00000020: 1732 273e abb2 4c3e 1935 0dbe ac52 d03d
00000030: 8a4b 0dbe 2b93 17be 199f 043e fe79 52be
00000040: 00f5 57be e7e4 0c3e 7396 30be 8c03 77be
00000050: 1161 1a3e d9c6 303e 3bbe 05be 38ad ed3d
00000060: fc77 15be ab97 74be 2197 023e fdae 87be
00000070: 1331 003e dc73 03be bea0 323e 1026 0ebe
00000080: e800 113e e939 25be d0cd fbbd 9722 17be
00000090: 9d57 123e 13b3 10be 2724 2bbe c039 0c3e
000000a0: c6f7 3bbe 871c 40be e98c d63d c460 1bbe
000000b0: f12a 42be 7d90 29be f8ba 313e 7d55 fbbd
000000c0: cbfa 653e 3619 f63d 89ce 863e ff65 17be
000000d0: e5e2 47be 27c0 0fbe f269 bb3e ddcc 23be
000000e0: eabc 433e fdbe afbd 1ada 62be 6bb9 223e
000000f0: fc09 42be 2912 26be 317f ecbd 8d06 543e
00000100: 5e3c 243e da18 3e3e 3ca9 023e c2e2 81be
00000110: 64f7 55be a4b0 de3d 2177 3abe 38f2 febd
00000120: 3dcf bcbd 1030 013e 0ba8 0abe be3c 05be
00000130: 8c03 6a3e 6eee 57be b90d 323e 4678 0abe
00000140: 03af 37be 0a16 323e ca41 8cbe 36d1 433e
00000150: bd89 10be 6543 05be 9255 27be a87b 2e3e
00000160: 8086 20be efe3 2a3e 15a3 f0bd be82 733e
00000170: 0f53 44be 8056 51be 5f38 243e f6b0 eb3d
00000180: ed41 573e f965 523e 03d9 8cbe 0fe2 21be
00000190: 6a88 42be c50c 153e 7a06 dd3d f113 0e3e
000001a0: a502 79be ce91 4ebe ee36 fa3d c9fe 233e
000001b0: a3d5 d6bd 1847 48be b336 723e e914 1a3e
000001c0: 0cbc 333e 28a2 9c3e 23d7 233e fb99 503e
000001d0: 8a50 5c3e 364f 353e ccfb 3f3e 0dd1 d33d
000001e0: 000e 193e 2869 0a3e 4c52 01be 08e8 1a3e
000001f0: 93d8 f93d e3f2 e6bd b2e6 603e 9178 0fbe
00000200: 0aea 2d3e e106 29be 94ec 11be a3ab 1c3e
00000210: 1f9f 02be f041 36be fe2b 853e 177a f63d
00000220: 7825 303e 8bfc f4bd 0920 f8bd 5a1c 21be
00000230: 582a 3ebe dcf5 043e 6e36 39be 2661 1b3e
00000240: 9fb0 bb3d 7e88 2abe c8f9 5ebe 6d47 4f3e
00000250: e38f 75be 69cc 773e 5893 203e 359a 1f3e
00000260: d4ea 0c3e 61d6 4fbe c0e0 3c3e 207f 40be
00000270: ef71 113e f4ac 593e 6f36 85be 4292 df3d
00000280: e783 533e 8b49 d73d 1b64 42be 099a 03be
00000290: f11d 083e 0bf2 14be 4861 13be 7498 003e
000002a0: 4530 3ebe 0573 d13d 2906 f7bd 71d7 f53d
000002b0: 9ae0 593e 3c58 df3d 6e44 0abe d685 21be
000002c0: 6a9c 01be affd 3ebe c710 6cbe 8d74 4e3e
000002d0: b852 013e c53d 063e 85ba 0dbe cf5d 543e
000002e0: 737c 103e 9201 23be c23a 423e a98f 16be
000002f0: 8a32 fbbd 4aa2 013e d686 b53d 8117 603e
00000300: 692a 06be 5f12 fabd 0528 f3bd 96de e63d
00000310: 529d 03be f2f0 5d3e a5d6 2cbe 3bac bebd
00000320: 53ec 50be 7010 11be 3520 04be dc32 34be
00000330: bf24 083e 1416 02be 1877 f13d c7c8 93be
00000340: c036 b5bd f570 5fbe b145 8abe 33ab 013e
00000350: c194 343e 64a8 253e 9eb0 853e 331b 033e
00000360: 4333 4fbe 2519 003e a68a fd3d b4e6 013e
00000370: 7e1b 32be 1066 10be c870 53be eca0 84be
00000380: 5a3b 4bbe fd7a 533e 095c 7b3e 0ff7 5a3e
00000390: 86c8 6abe 6c6f 76be cef8 453e 4a10 5abe
000003a0: 3397 6a3e 1242 1f3e 4649 31be d77e 42be
000003b0: 9344 7e3e 45cd 453e 8862 653e be0f 193e
000003c0: 0765 173e 570d 4abe d881 2d3e 9af3 0dbe
000003d0: 96ce 6dbe 650f d03d 4dd5 4ebe 0fe3 1fbe
000003e0: 72f2 3c3e 32d1 5ebe 422d 1e3e ff38 20be
000003f0: cf27 53be 2b29 823e 2b36 c63d 6f41 fabd
0.11379112 0.14319322 0.15757827 -0.09002119 0.17311998 -0.19947523 -0.21617267 0.14616336
0.16327702 0.19990031 -0.13789786 0.101720184 -0.13798347 -0.14802234 0.12951316 -0.20554349
-0.21089554 0.13759194 -0.17244892 -0.24122447 0.1507609 0.17263354 -0.13060848 0.116053045
-0.14596552 -0.23885982 0.12752964 -0.26500693 0.1251872 -0.12837166 0.17444131 -0.13881707
0.14160502 -0.16135372 -0.12295115 -0.14759289 0.14291234 -0.14130811 -0.1671301 0.13693905
-0.18356237 -0.18760882 0.10476095 -0.15173632 -0.18961693 -0.16559024 0.17356479 -0.12272165
0.22458951 0.12016527 0.2632945 -0.14785002 -0.19520147 -0.14038144 0.36604267 -0.15996118
0.19115034 -0.0858135 -0.22153512 0.15891044 -0.18949121 -0.16217865 -0.11547697 0.20705624
0.16038653 0.18564168 0.1275987 -0.25368315 -0.20895153 0.10873535 -0.18209507 -0.12448543
-0.09219215 0.1261599 -0.13540666 -0.13011453 0.22852916 -0.21087047 0.17388047 -0.13522443
-0.17937855 0.1739122 -0.27393943 0.19122776 -0.14115043 -0.1301399 -0.16341236 0.17039359
-0.15676308 0.16688512 -0.117498554 0.23780343 -0.1917231 -0.20443153 0.16037129 0.11508362
0.21021242 0.20546712 -0.27509317 -0.15808891 -0.1899735 0.14555652 0.10792251 0.13874795
-0.24317415 -0.20172808 0.12217508 0.16015162 -0.10489967 -0.1955837 0.23653679 0.15047039
0.17552203 0.30592465 0.16000037 0.20371239 0.21515098 0.17705998 0.18748397 0.10342608
0.14946747 0.13516676 -0.1262905 0.15127575 0.121995114 -0.11276796 0.21963003 -0.14010836
0.1698381 -0.1650653 -0.14250404 0.15299849 -0.12756012 -0.1779859 0.26010126 0.120350055
0.17201793 -0.11962231 -0.12115485 -0.15733472 -0.1857084 0.12984413 -0.1808717 0.15173778
0.09164547 -0.1665363 -0.21774971 0.2024209 -0.2398067 0.2419907 0.15681207 0.15586169
0.13761455 -0.20296623 0.1844511 -0.18798494 0.14203618 0.21257383 -0.26018092 0.10916568
0.20655786 0.10512074 -0.189835 -0.12851728 0.13292672 -0.14545457 -0.14392579 0.12558156
-0.18573101 0.10227016 -0.12061722 0.12003983 0.21277085 0.10905501 -0.13502666 -0.1577371
-0.12657323 -0.1865146 -0.23053275 0.20161648 0.12629211 0.131095 -0.13840683 0.2073891
0.14109974 -0.15918568 0.18967727 -0.1470324 -0.12265499 0.12659565 0.088636085 0.21883966
-0.13102116 -0.12210535 -0.118728675 0.11272924 -0.12852982 0.21673945 -0.16878755 -0.09310194
-0.2040265 -0.14166427 -0.12902911 -0.17597526 0.13295268 -0.12703735 0.117902935 -0.28864118
-0.08848333 -0.21820433 -0.27006295 0.12662964 0.1763487 0.16177517 0.2611131 0.12803344
-0.20234399 0.12509592 0.12379961 0.12685663 -0.173933 -0.14101434 -0.20648491 -0.25904024
-0.1984686 0.20652385 0.24546827 0.21383308 -0.22928056 -0.24065942 0.19333193 -0.21295276
0.2290924 0.15552548 -0.17313108 -0.18993698 0.24830846 0.19316585 0.22400868 0.14947411
0.14784633 -0.19731651 0.16944063 -0.13862458 -0.23223338 0.10159186 -0.20198555 -0.1561396
0.1845186 -0.21759489 0.15446952 -0.15646742 -0.20620655 0.25422034 0.096783005 -0.12219512

head.weight f4 [6, 256]
00000000: 3401 8e3e 0749 033e 7cf6 10be b9cd 8d3c
00000010: 7e04 663d ce5f 363e 17fe 4ebe 7aee 283d
00000020: 22b1 c1bd f32a f6bc a65c 8b3d 311e 51bc
00000030: a3bf 8f3d 4afb 293e cb09 3cbe 08de a23c
00000040: a471 273e c0ba ebbd a8ca 41be 8d0e dc3d
00000050: 343d 04be 6c17 233d 3bdf d83c fc9a 7fbd
00000060: 58fd 38bd 0f9c e2bc e75e 113e c44f 25be
00000070: dcf0 52bd 1be4 a43d e69f 86be c9b9 11be
00000080: 5956 a53d 0445 3cbd b206 e93d 5e5e 17be
00000090: c518 c0bd 5ea4 b13d 11c8 333e 2eaa f9bd
000000a0: 9df4 65be fe72 033e c672 10bd 2086 ec3c
000000b0: 1e08 073e cf8d 233e 1afa 893c 5d7a 203e
000000c0: 2c1a 4a3e 3cd8 183e 2562 3a3e 0aa1 7e3d
000000d0: bc2e 183e 2f27 863d 9d88 a23d 2bb2 93be
000000e0: 35c9 90bd a6dc 843d ee04 76bd 698a 28bd
000000f0: 67b0 5f3c e795 15bc ba82 26bd f3ca b03c
00000100: c359 373e 6834 313e a264 163e 0059 42be
00000110: 97eb c93d 540d a7bd 3fa9 cebd cd79 243d
00000120: 291f 623d eadd 31bd d926 963d 8bec fb3d
00000130: bd2a 663e cfed 77be 08c6 303e 9d9d e4bd
00000140: d46b 983d 69d5 b0bd 258c 1d3e a302 31be
00000150: 3b4d 2d3e 32b1 e73d 7212 d23d 9104 983e
00000160: da66 2bbe 2d60 f5bd 25d6 533e 7c4d 1bbe
00000170: 043f 873d 3352 db3d e899 1cbe 5b7c 14be
00000180: 9424 5abc b5b3 d63d f181 dc3d 9237 4fbd
00000190: 7937 d83d 2655 ed3d c28e eabd de74 083d
000001a0: b70f 3a3e 455f dfbc ef8f 1e3d fc46 7b3e
000001b0: fa7c d23d fc1a 693e b9f9 9cbd c22b 1abe
000001c0: 39ea 953d 90ff bebd 080d 733c a753 2d3d
000001d0: eeaf 2abe 8c72 2d3e 1323 0abe 4a16 ac3d
000001e0: 39e6 4c3e 20d2 1cbe b809 85bd b83c a93e
000001f0: 0aca 95bd 3f8a d6bd 4105 513e 0668 b33d
00000200: 1b90 28be d45c 0e3e 892c b7be 58d1 6ebd
00000210: ae3b 393e 6cb1 fbbd 430d 90bd e124 b9bd
00000220: 2b20 933e ae84 3ebd 1da7 97bb 6937 243e
00000230: f0c8 153e a661 fabd 5e9d 0dbc e0f8 d9bd
00000240: f752 843d b2e5 f0bd 94b5 aabd 6c1e 1fbe
00000250: 0a5c 413e dcfa c93c bfc0 b2bd 77f3 253e
00000260: c9f0 5dbe c39d 71bd a5f4 40be 8ac0 12be
00000270: 7254 41bd 8910 733d 1d8d cfbc 3ec7 0ebe
00000280: 5ca2 38bd c460 9dbd 0ce5 763d ac24 4b3d
00000290: f5a9 b2bd 222e 193e 0a57 e03d 371e c43c
000002a0: f5aa 77bd 4d18 53bc c7a8 debd 2bd9 8cbd
000002b0: 188f a9bd 6589 4c3e c99d 453e f8e8 38bd
000002c0: 1628 ae3d 0008 f93d 1d60 2cbd 9a48 37be
000002d0: 07e6 29be 71a9 10be c4de af3d 615a 3cbd
000002e0: 9b04 67be e6d4 213e 6fe9 933e 964f 023e
000002f0: 8183 103d 720e 2c3e 33ed d03c 87ae b33d
00000300: 9f1f 2d3e 70dd 8fbd 0d23 a0bb 0456 01bd
00000310: 191f a73d 6013 c7bd c556 7c3d 8832 23bc
00000320: d148 0d3e a813 423e e959 9ebd da2f 05bc
00000330: 4967 d4bd 6bc3 33be fa90 a7bd 60b4 1bbe
00000340: 23d8 273d 9bdc c43d e58f 98bb 8677 0dbd
00000350: 23ab 42be 37f9 7fbd 6a74 34bd 2541 e3bd
00000360: 94ce a5bd 9906 e8bc b182 20be 80eb 823e
00000370: e449 a1bd c914 19be 2b3e 5bbd 863c d8bd
00000380: 00cc 7cbd 46a1 04be 8a3b 813e 422b 523d
00000390: 9d37 2bbe e3a4 02be 07b6 1f3d af61 1b3e
000003a0: 0fea dabd 80ab 913e 7175 153e c187 553e
000003b0: a60c a73d ec2d 14be 0788 cfbd 78b9 b8bc
000003c0: 4ab4 2b3e b41e 003e 486c ee3b acf3 8cbe
000003d0: e5c6 6b3e b33d aebc b48a 10bd bcad 3cbe
000003e0: eac4 b93d 3aeb f33c 6d16 8b3e 38de dc3c
000003f0: 846b 29be a8d6 f3bb 2a30 44bc 5cee 6a3d
0.27735293 0.12820826 -0.14156526 0.01731001 0.056156628 0.17809984 -0.20214115 0.041243054
-0.094576135 -0.030049777 0.06804781 -0.012763546 0.07018974 0.16599765 -0.1836311 0.019881263
0.16351944 -0.11510229 -0.18924963 0.10744963 -0.12913972 0.03981726 0.026473632 -0.062403664
-0.045163482 -0.027662305 0.14196359 -0.1614371 -0.051499233 0.0805132 -0.26293868 -0.14231028
0.0807311 -0.045964256 0.1137823 -0.14782092 -0.093797244 0.08673929 0.17556788 -0.12190662
-0.22456594 0.12836835 -0.035265706 0.02887255 0.1318669 0.15972064 0.01684289 0.15671678
0.19736546 0.14926237 0.18201502 0.062165298 0.14861578 0.065504424 0.07936213 -0.2884687
-0.07069627 0.06487398 -0.060063295 -0.041147623 0.013652897 -0.009129978 -0.040652014 0.021581149
0.17905335 0.17305148 0.14686826 -0.18979263 0.09859388 -0.08156839 -0.10090875 0.04015522
0.055205498 -0.043424524 0.07331628 0.12300976 0.22477241 -0.2421181 0.17263043 -0.11162875
0.074424416 -0.08634455 0.15385492 -0.17286162 0.16923992 0.11313094 0.102574244 0.29690984
-0.16738454 -0.11981235 0.20687158 -0.15166277 0.06603816 0.10709038 -0.15293086 -0.14500563
-0.013314385 0.10483495 0.10766972 -0.050590105 0.105574556 0.115885064 -0.1145301 0.03331458
0.18170057 -0.027267108 0.038711485 0.24538797 0.10277744 0.227642 -0.07664818 -0.15055755
0.07320065 -0.093260884 0.01483465 0.042316105 -0.16668674 0.16938227 -0.13489942 0.08402689
0.20009698 -0.15314531 -0.06495994 0.33054137 -0.073139265 -0.10475587 0.2041216 0.08760075
-0.16461222 0.13902599 -0.35776165 -0.058305115 0.18089172 -0.122897 -0.070337795 -0.09040237
0.2873548 -0.046513252 -0.0046280758 0.16036762 0.14627433 -0.12225656 -0.008643476 -0.10643172
0.06461137 -0.11762561 -0.083354145 -0.15538949 0.18882766 0.024655752 -0.0872817 0.16206156
-0.21673883 -0.058988344 -0.18843324 -0.1433126 -0.047199674 0.05934194 -0.025335843 -0.13943192
-0.045076713 -0.07684472 0.06027703 0.04959552 -0.08723823 0.14959005 0.109541014 0.023940189
-0.06046577 -0.012884212 -0.108720355 -0.06877359 -0.08279246 0.19974287 0.19298472 -0.04514405
0.085037395 0.12159729 -0.04208385 -0.17898789 -0.16591655 -0.14127137 0.08587411 -0.04598463
-0.2256035 0.1580387 0.28889033 0.12725672 0.035281662 0.16802385 0.02550373 0.08773523
0.16906594 -0.07024658 -0.004886991 -0.03157617 0.08160228 -0.09720492 0.061606187 -0.009960778
0.13797309 0.18952811 -0.07731993 -0.0081290845 -0.103712626 -0.17555015 -0.08181949 -0.15205526
0.04097761 0.0961239 -0.0046558254 -0.034537815 -0.19010596 -0.06249353 -0.044056334 -0.1109641
-0.08096042 -0.028323459 -0.15674855 0.25570297 -0.07875422 -0.14949335 -0.053526085 -0.10558419
-0.061717987 -0.12952146 0.25240737 0.051310785 -0.16720434 -0.12758212 0.038991954 0.15173982
-0.106891744 0.28451157 0.14595582 0.20852567 0.081567094 -0.14470643 -0.10133367 -0.022549376
0.16767994 0.12511712 0.0072760917 -0.27529657 0.23025091 -0.021269655 -0.035288528 -0.1842565
0.090707615 0.02977525 0.27165547 0.02696143 -0.1654492 -0.0074413605 -0.011974374 0.057356223

head.bias f4 [6]
00000000: 2f7e 003e 20cf 46bd e766 013e 12c0 95bc
00000010: c2fb 7dbd b7db 46bd
0.12548135 -0.048537374 0.1263691 -0.018280063 -0.062007673 -0.04854938
